Model: "functional_1"
_________________________________________________________________
Layer (type)                 Output Shape              Param #   
=================================================================
input_1 (InputLayer)         [(None, 8)]               0         
_________________________________________________________________
dense_variational (DenseVari (None, 196)               5292      
_________________________________________________________________
batch_normalization (BatchNo (None, 196)               784       
_________________________________________________________________
dense_variational_1 (DenseVa (None, 196)               115836    
_________________________________________________________________
batch_normalization_1 (Batch (None, 196)               784       
_________________________________________________________________
dense_variational_2 (DenseVa (None, 196)               115836    
_________________________________________________________________
batch_normalization_2 (Batch (None, 196)               784       
_________________________________________________________________
dense (Dense)                (None, 21)                4137      
_________________________________________________________________
mixture_normal (MixtureNorma ((None, 1), (None, 1))    0         
=================================================================
Total params: 243,453
Trainable params: 242,277
Non-trainable params: 1,176
_________________________________________________________________
Output dir: D:\Documentos\qucats_paper\results\bmdn\crossval_model_dr4_BWG_700e\
…
