Model: "functional_1"
_________________________________________________________________
Layer (type)                 Output Shape              Param #   
=================================================================
input_1 (InputLayer)         [(None, 10)]              0         
_________________________________________________________________
dense_variational (DenseVari (None, 196)               6468      
_________________________________________________________________
batch_normalization (BatchNo (None, 196)               784       
_________________________________________________________________
dense_variational_1 (DenseVa (None, 196)               115836    
_________________________________________________________________
batch_normalization_1 (Batch (None, 196)               784       
_________________________________________________________________
dense_variational_2 (DenseVa (None, 196)               115836    
_________________________________________________________________
batch_normalization_2 (Batch (None, 196)               784       
_________________________________________________________________
dense (Dense)                (None, 21)                4137      
_________________________________________________________________
mixture_normal (MixtureNorma ((None, 1), (None, 1))    0         
=================================================================
Total params: 244,629
Trainable params: 243,453
Non-trainable params: 1,176
_________________________________________________________________
Output dir: D:\Documentos\qucats_paper\results\validation\bnn\crossval_model_dr4_BWG_flag_2\
…
